…
       [1, 1, 1],
       [2, 3, 2],
       [1, 1, 1],
       [1, 1, 1],
       [1, 2, 1],
       [2, 3, 2],
       [1, 2, 1],
       [1, 1, 1]]), 'adj_mat': array([[… )} [[8], [8], [8], [8], [8], [8]]
[ALL  ]Mon Nov 27 13:02:09 2023 | /code/GCN-Light-Control/rl/multiAgent/MALShare.py:log_model_structure:98
       IQLShare, every model use same model structure and have same weight.
[ALL  ]Mon Nov 27 13:02:09 2023 | /code/GCN-Light-Control/rl/agents/DQNAgent.py:log_model_structure:195
       model structure:
 DuelingSplitModel(
  (inner): NewModel(
    (phase_predict): PhasePredict(
      (emb_direction): Embedding(3, 2)
      (emb_fc): Linear(in_features=4, out_features=32, bias=True)
      (attention): MultiheadAttention(
        (out_proj): _LinearWithBias(in_features=32, out_features=32, bias=True)
      )
      (phase_predict): Sequential(
        (0): Linear(in_features=32, out_features=1, bias=True)
        (1): Sigmoid()
      )
      (vol_predict_fc): Linear(in_features=32, out_features=3, bias=True)
    )
    (volume_predict): VolumePredict(
      (GCN): GCN(
        (layer1): GraphConvolutionLayer(
          (linear): Linear(in_features=32, out_features=64, bias=True)
        )
        (layer2): GraphConvolutionLayer(
          (linear): Linear(in_features=64, out_features=1, bias=True)
        )
      )
    )
    (lane_embedding): LaneEmbedding(
      (layers): Sequential(
        (0): Linear(in_features=3, out_features=32, bias=True)
        (1): ReLU()
      )
    )
    (fc): Sequential(
      (0): Linear(in_features=65, out_features=32, bias=True)
      (1): ReLU()
    )
  )
  (fc): Linear(in_features=32, out_features=1, bias=True)
  (V): Linear(in_features=256, out_features=1, bias=True)
) 
-------
[INFO ]Mon Nov 27 13:02:09 2023 | /code/GCN-Light-Control/mainfunc/DQNMain.py:__init__:10
       DQNMain init over
[INFO ]Mon Nov 27 13:05:33 2023 | /code/GCN-Light-Control/mainfunc/DQNMain.py:real_sampling:216
       epoch    0, frame    2400: time=204.172, eps=0.87, reward=-19552.719903, result=4440.798100
[INFO ]Mon Nov 27 13:10:21 2023 | /code/GCN-Light-Control/mainfunc/DQNMain.py:real_sampling:216
…
