…
       [2, 3, 2],
       [1, 1, 1],
       [1, 1, 1],
       [1, 2, 1],
       [2, 3, 2],
       [1, 2, 1],
       [1, 1, 1]]), 'adj_mat': array([[… )} [[8], [8], [8], [8], [8], [8]]
[ALL  ]Fri Nov 24 10:47:54 2023 | /code/gcn-unilight/gcn-uniligh-v2/rl/multiAgent/MALShare.py:log_model_structure:98
       IQLShare, every model use same model structure and have same weight.
[ALL  ]Fri Nov 24 10:47:54 2023 | /code/gcn-unilight/gcn-uniligh-v2/rl/agents/DQNAgent.py:log_model_structure:188
       model structure:
 DuelingSplitModel(
  (inner): NewModel(
    (phase_predict): PhasePredict(
      (emb_direction): Embedding(3, 2)
      (emb_fc): Linear(in_features=4, out_features=32, bias=True)
      (attention): MultiheadAttention(
        (out_proj): _LinearWithBias(in_features=32, out_features=32, bias=True)
      )
      (phase_predict): Sequential(
        (0): Linear(in_features=32, out_features=1, bias=True)
        (1): Sigmoid()
      )
      (vol_predict_fc): Linear(in_features=32, out_features=3, bias=True)
    )
    (volume_predict): VolumePredict(
      (GAT): GAT(
        (layer1): GraphAttentionLayer(
          (linear): Linear(in_features=32, out_features=64, bias=False)
        )
        (layer2): GraphAttentionLayer(
          (linear): Linear(in_features=4608, out_features=1, bias=False)
        )
      )
    )
    (lane_embedding): LaneEmbedding(
      (layers): Sequential(
        (0): Linear(in_features=3, out_features=32, bias=True)
        (1): ReLU()
      )
    )
    (fc): Sequential(
      (0): Linear(in_features=65, out_features=32, bias=True)
      (1): ReLU()
    )
  )
  (fc): Linear(in_features=32, out_features=1, bias=True)
  (V): Linear(in_features=256, out_features=1, bias=True)
) 
-------
[INFO ]Fri Nov 24 10:47:54 2023 | /code/gcn-unilight/gcn-uniligh-v2/mainfunc/DQNMain.py:__init__:10
       DQNMain init over
[ERROR]Fri Nov 24 10:47:54 2023 | /code/gcn-unilight/gcn-uniligh-v2/main.py:main_wrapper:12
       some error cooured! will show below.
